wake-word-models/hey_dashie_v3.2.tflite (tflite, 624048 bytes, 53 tensors)

sequential/dense/MatMul i1 [2, 1280] scale=0.14776953 zero_point=0
00000000: faf1 0aed 0cf9 13ff fde9 fbed f9fe f1ea
00000010: f404 0401 e0fb f004 eb0a f7f7 ffdf ef01
00000020: f703 33f3 1705 e60d fcf3 dac8 0a09 0ef6
00000030: f8e8 d4fc e3f2 d909 070a f2ea 02ec 0c09
00000040: 0ce9 0ce8 e1fa 0bdc 04df eec5 eeed e0f2
00000050: ebc9 2303 e1ec e0ea 08de ef06 effe d407
00000060: 021b 010f 0508 08d9 07e7 f606 fc02 f1f7
00000070: de14 09c8 d307 17e9 bd08 ff04 e305 e6e8
00000080: 08da cd0d 07f8 daf7 ca16 1d01 f20c ffd5
00000090: 13e4 f700 02f1 f212 bde5 0ddf fd01 dffa
000000a0: e103 041e e9f5 17e5 f9d2 07f9 0207 0606
000000b0: 07fb f903 0ee4 0400 0ad2 d01d 021e 0102
000000c0: fe1c 08e1 05df 0bf0 0a03 0fc8 0f2d fa08
000000d0: 09e5 0de4 def8 05ed d7fe f5fe ef09 dafc
000000e0: e518 e5b6 fb0a d9df 05f6 d602 e702 1cfc
000000f0: 1cc4 0abe ef1f fc0f fff9 e2df d206 f6fe
-0.8866172 -2.216543 1.4776952 -2.807621 1.7732344 -1.0343866 2.807621 -0.14776953
-0.4433086 -3.398699 -0.7388476 -2.807621 -1.0343866 -0.29553905 -2.216543 -3.2509296
-1.7732344 0.5910781 0.5910781 0.14776953 -4.728625 -0.7388476 -2.3643124 0.5910781
-3.1031601 1.4776952 -1.3299258 -1.3299258 -0.14776953 -4.8763943 -2.5120819 0.14776953
-1.3299258 0.4433086 7.536246 -1.9210038 3.398699 0.7388476 -3.8420076 1.9210038
-0.5910781 -1.9210038 -5.615242 -8.275093 1.4776952 1.3299258 2.0687733 -1.4776952
-1.1821562 -3.5464687 -6.501859 -0.5910781 -4.2853165 -2.0687733 -5.7630115 1.3299258
1.0343866 1.4776952 -2.0687733 -3.2509296 0.29553905 -2.9553905 1.7732344 1.3299258
1.7732344 -3.398699 1.7732344 -3.5464687 -4.5808554 -0.8866172 1.6254648 -5.319703
0.5910781 -4.8763943 -2.6598516 -8.718402 -2.6598516 -2.807621 -4.728625 -2.0687733
-3.1031601 -8.127324 5.171933 0.4433086 -4.5808554 -2.9553905 -4.728625 -3.2509296
1.1821562 -5.0241637 -2.5120819 0.8866172 -2.5120819 -0.29553905 -6.501859 1.0343866
0.29553905 3.989777 0.14776953 2.216543 0.7388476 1.1821562 1.1821562 -5.7630115
1.0343866 -3.6942382 -1.4776952 0.8866172 -0.5910781 0.29553905 -2.216543 -1.3299258
-5.0241637 2.9553905 1.3299258 -8.275093 -6.6496286 1.0343866 3.398699 -3.398699
-9.900558 1.1821562 -0.14776953 0.5910781 -4.2853165 0.7388476 -3.8420076 -3.5464687
1.1821562 -5.615242 -7.536246 1.9210038 1.0343866 -1.1821562 -5.615242 -1.3299258
-7.979554 3.2509296 4.2853165 0.14776953 -2.0687733 1.7732344 -0.14776953 -6.3540897
2.807621 -4.1375465 -1.3299258 0.0 0.29553905 -2.216543 -2.0687733 2.6598516
-9.900558 -3.989777 1.9210038 -4.8763943 -0.4433086 0.14776953 -4.8763943 -0.8866172
-4.5808554 0.4433086 0.5910781 4.433086 -3.398699 -1.6254648 3.398699 -3.989777
-1.0343866 -6.797398 1.0343866 -1.0343866 0.29553905 1.0343866 0.8866172 0.8866172
1.0343866 -0.7388476 -1.0343866 0.4433086 2.0687733 -4.1375465 0.5910781 0.0
1.4776952 -6.797398 -7.0929375 4.2853165 0.29553905 4.433086 0.14776953 0.29553905
-0.29553905 4.1375465 1.1821562 -4.5808554 0.7388476 -4.8763943 1.6254648 -2.3643124
1.4776952 0.4433086 2.216543 -8.275093 2.216543 6.6496286 -0.8866172 1.1821562
1.3299258 -3.989777 1.9210038 -4.1375465 -5.0241637 -1.1821562 0.7388476 -2.807621
-6.0585504 -0.29553905 -1.6254648 -0.29553905 -2.5120819 1.3299258 -5.615242 -0.5910781
-3.989777 3.5464687 -3.989777 -10.934945 -0.7388476 1.4776952 -5.7630115 -4.8763943
0.7388476 -1.4776952 -6.2063203 0.29553905 -3.6942382 0.29553905 4.1375465 -0.5910781
4.1375465 -8.866172 1.4776952 -9.752789 -2.5120819 4.5808554 -0.5910781 2.216543
-0.14776953 -1.0343866 -4.433086 -4.8763943 -6.797398 0.8866172 -1.4776952 -0.29553905

sequential/mobilenetv2_0.35_99/Conv_1/Conv2D i1 [1280, 1, 1, 112]
00000000: c045 1bf2 85c0 d52c 01b8 851b b20c 0733
00000010: e8ed 2fc8 26eb fa05 02c7 dd13 3343 7f9a
00000020: 0349 f504 85e6 070b c70d 23b4 4ae3 5145
00000030: 50eb d23d f4c4 fccf 0739 01d9 25e6 d110
00000040: faf7 cf1b efa4 42cf e2fa bcfc ec0b eaff
00000050: 37f6 f1d8 b62e d23e fae5 d63e 26fc c9d6
00000060: b4df f0f5 3911 fe06 1dfe 42fc fdfc 1f1a
00000070: ee38 18de a313 1727 02c3 ba40 cb43 e340
00000080: cf31 05e0 e2f8 f7e7 0eab 0129 3acd 01be
00000090: e3ef e01f 1302 5b08 fb36 f22c e331 3018
000000a0: 3181 583a 2d43 f0ca f7fd e11c 12f8 f9f6
000000b0: eced 34ed 33ee 70e0 1bdc e031 18f1 e8e5
000000c0: 25d6 e227 db22 2ac5 e840 e9ff 3fde fcee
000000d0: cdf0 0cd4 d5ea 60bc efd2 eccb 0543 4a01
000000e0: 07f5 2a13 0bd1 0920 008b 5038 d8f6 2d24
000000f0: 2a16 0df5 f5be 2226 ede8 1c19 2037 c6b9
-64 69 27 -14 -123 -64 -43 44
1 -72 -123 27 -78 12 7 51
-24 -19 47 -56 38 -21 -6 5
2 -57 -35 19 51 67 127 -102
3 73 -11 4 -123 -26 7 11
-57 13 35 -76 74 -29 81 69
80 -21 -46 61 -12 -60 -4 -49
7 57 1 -39 37 -26 -47 16
-6 -9 -49 27 -17 -92 66 -49
-30 -6 -68 -4 -20 11 -22 -1
55 -10 -15 -40 -74 46 -46 62
-6 -27 -42 62 38 -4 -55 -42
-76 -33 -16 -11 57 17 -2 6
29 -2 66 -4 -3 -4 31 26
-18 56 24 -34 -93 19 23 39
2 -61 -70 64 -53 67 -29 64
-49 49 5 -32 -30 -8 -9 -25
14 -85 1 41 58 -51 1 -66
-29 -17 -32 31 19 2 91 8
-5 54 -14 44 -29 49 48 24
49 -127 88 58 45 67 -16 -54
-9 -3 -31 28 18 -8 -7 -10
-20 -19 52 -19 51 -18 112 -32
27 -36 -32 49 24 -15 -24 -27
37 -42 -30 39 -37 34 42 -59
-24 64 -23 -1 63 -34 -4 -18
-51 -16 12 -44 -43 -22 96 -68
-17 -46 -20 -53 5 67 74 1
7 -11 42 19 11 -47 9 32
0 -117 80 56 -40 -10 45 36
42 22 13 -11 -11 -66 34 38
-19 -24 28 25 32 55 -58 -71

sequential/mobilenetv2_0.35_99/block_16_project/Conv2D i1 [112, 1, 1, 336]
00000000: d82a f0b1 05e3 e220 40e1 1cde 01e0 f611
00000010: 0c19 e60f e5ad 0a07 e0f8 4012 2730 1cf1
00000020: ea36 ec12 1d0b a3c7 dea8 1d37 fa14 bce7
00000030: ff1d 0831 dc15 210d bcbd d9f0 a806 e2f2
00000040: eae3 e981 cdf0 d106 e7c2 21fc 1812 ef3d
00000050: 2efe 23f7 25b4 f714 2c20 c9f4 0ed7 4515
00000060: f7fd 0ade dd34 dc19 102b a784 8813 46cb
00000070: def5 a318 2818 00dc 03b8 31e1 edb4 0eff
00000080: 1f2e ee2c e7f2 ca06 61e8 fc04 00ba d9d6
00000090: e810 05b9 7423 2cef aa19 d8ec 1b22 fa13
000000a0: 2aac d602 a932 21f5 34ea c0f6 db24 dd07
000000b0: faae b637 2c22 04ba 4ceb 44fd ec04 13e5
000000c0: 96b9 f607 a8cf e4f4 19db 0c0e 32a9 350d
000000d0: fe01 d7a5 e8fa b2c0 102a fa53 f7eb 102f
000000e0: ebd9 10d8 11dd 0e31 f4b9 16f2 2024 e119
000000f0: 0601 d7e9 b826 c114 1a0d f3db 3008 03f3
-40 42 -16 -79 5 -29 -30 32
64 -31 28 -34 1 -32 -10 17
12 25 -26 15 -27 -83 10 7
-32 -8 64 18 39 48 28 -15
-22 54 -20 18 29 11 -93 -57
-34 -88 29 55 -6 20 -68 -25
-1 29 8 49 -36 21 33 13
-68 -67 -39 -16 -88 6 -30 -14
-22 -29 -23 -127 -51 -16 -47 6
-25 -62 33 -4 24 18 -17 61
46 -2 35 -9 37 -76 -9 20
44 32 -55 -12 14 -41 69 21
-9 -3 10 -34 -35 52 -36 25
16 43 -89 -124 -120 19 70 -53
-34 -11 -93 24 40 24 0 -36
3 -72 49 -31 -19 -76 14 -1
31 46 -18 44 -25 -14 -54 6
97 -24 -4 4 0 -70 -39 -42
-24 16 5 -71 116 35 44 -17
-86 25 -40 -20 27 34 -6 19
42 -84 -42 2 -87 50 33 -11
52 -22 -64 -10 -37 36 -35 7
-6 -82 -74 55 44 34 4 -70
76 -21 68 -3 -20 4 19 -27
-106 -71 -10 7 -88 -49 -28 -12
25 -37 12 14 50 -87 53 13
-2 1 -41 -91 -24 -6 -78 -64
16 42 -6 83 -9 -21 16 47
-21 -39 16 -40 17 -35 14 49
-12 -71 22 -14 32 36 -31 25
6 1 -41 -23 -72 38 -63 20
26 13 -13 -37 48 8 3 -13

sequential/mobilenetv2_0.35_99/block_16_depthwise_BN/FusedBatchNormV3;sequential/mobilenetv2_0.35_99/block_16_depthwise/depthwise i1 [1, 3, 3, 336]
00000000: 7f7f 997f 0bb4 7f2b e6c5 d52b e081 ca34
00000010: 1973 e2b2 143e 1e62 e405 a734 4178 fc63
00000020: 120b 077f 8c35 7ffc 1381 f5a6 6a63 7f10
00000030: 042d 0a91 bd2d 251a 6e7f 8102 7f25 5165
00000040: 9320 00fc 0911 8144 b5f7 17d9 92be c003
00000050: 53e0 d17f aa5f d9c4 b14d 817f 20a4 f15c
00000060: b181 51e5 130d 48fc 29c9 6fe9 06f5 a2d3
00000070: 7f3a f0d5 8100 9234 2384 daff f94f f87d
00000080: 113e 18de 5c2e 6678 1e3c 083c 1244 daf1
00000090: ec2a 0d7f 8f19 ad81 55cd 3935 eb7f 62ed
000000a0: 7e81 a661 f500 ed55 21f0 f4a1 4a2c d830
000000b0: 4373 d081 3541 fde8 3f07 c3bd 7f06 6800
000000c0: 1b7f 0c23 8121 0df9 ab11 c8c7 02c0 1f33
000000d0: 26ef f8ea f01b f73b 7eb6 fbef 2b57 576b
000000e0: 0e13 e908 c103 e7f3 05e8 cc81 7f2d bd81
000000f0: dacc 1f35 64c5 6d1f da10 2fd3 1909 4881
127 127 -103 127 11 -76 127 43
-26 -59 -43 43 -32 -127 -54 52
25 115 -30 -78 20 62 30 98
-28 5 -89 52 65 120 -4 99
18 11 7 127 -116 53 127 -4
19 -127 -11 -90 106 99 127 16
4 45 10 -111 -67 45 37 26
110 127 -127 2 127 37 81 101
-109 32 0 -4 9 17 -127 68
-75 -9 23 -39 -110 -66 -64 3
83 -32 -47 127 -86 95 -39 -60
-79 77 -127 127 32 -92 -15 92
-79 -127 81 -27 19 13 72 -4
41 -55 111 -23 6 -11 -94 -45
127 58 -16 -43 -127 0 -110 52
35 -124 -38 -1 -7 79 -8 125
17 62 24 -34 92 46 102 120
30 60 8 60 18 68 -38 -15
-20 42 13 127 -113 25 -83 -127
85 -51 57 53 -21 127 98 -19
126 -127 -90 97 -11 0 -19 85
33 -16 -12 -95 74 44 -40 48
67 115 -48 -127 53 65 -3 -24
63 7 -61 -67 127 6 104 0
27 127 12 35 -127 33 13 -7
-85 17 -56 -57 2 -64 31 51
38 -17 -8 -22 -16 27 -9 59
126 -74 -5 -17 43 87 87 107
14 19 -23 8 -63 3 -25 -13
5 -24 -52 -127 127 45 -67 -127
-38 -52 31 53 100 -59 109 31
-38 16 47 -45 25 9 72 -127

sequential/mobilenetv2_0.35_99/block_16_expand/Conv2D i1 [336, 1, 1, 56]
00000000: 054b e005 e950 0f12 0de5 f812 0012 22f4
00000010: 33ad 1215 2cf2 1f17 090f f506 8118 0210
00000020: c748 17e5 dbd7 1127 0710 dec7 b6d7 1527
00000030: 00e8 ffe7 1909 ee35 d63b fa2f 30f5 edf9
00000040: c8df 49ff ec3c d1e4 de63 4bf8 bbea 1328
00000050: 0de2 b81b df2e aaa9 bdde 44d5 fffb 1735
00000060: 7ff6 cb00 201e 0f10 d10f e0fb d195 1513
00000070: eee5 5f1c 9ef8 28a3 37c6 e104 78e2 1b5d
00000080: 4518 8111 ed44 f5f8 e742 3418 2608 f5cc
00000090: ba20 240f 030d f6e7 fbc4 1e8a 99f4 efca
000000a0: 12d2 2ed7 e62b 4fb7 ec19 2345 fef5 f53b
000000b0: bdec 14f2 18da fbb4 fae9 34df 09f8 c7cd
000000c0: 2ae9 2e81 d008 f1c4 dd05 15e2 0221 e408
000000d0: 190d f2f2 cefc 0add 2c4f cc07 f1c6 d0d1
000000e0: c6f1 fbe9 e0d8 dd12 81e1 5002 f9d3 cb23
000000f0: d7e4 10d0 27f1 bd0a fac0 1bbb d13f b1ee
5 75 -32 5 -23 80 15 18
13 -27 -8 18 0 18 34 -12
51 -83 18 21 44 -14 31 23
9 15 -11 6 -127 24 2 16
-57 72 23 -27 -37 -41 17 39
7 16 -34 -57 -74 -41 21 39
0 -24 -1 -25 25 9 -18 53
-42 59 -6 47 48 -11 -19 -7
-56 -33 73 -1 -20 60 -47 -28
-34 99 75 -8 -69 -22 19 40
13 -30 -72 27 -33 46 -86 -87
-67 -34 68 -43 -1 -5 23 53
127 -10 -53 0 32 30 15 16
-47 15 -32 -5 -47 -107 21 19
-18 -27 95 28 -98 -8 40 -93
55 -58 -31 4 120 -30 27 93
69 24 -127 17 -19 68 -11 -8
-25 66 52 24 38 8 -11 -52
-70 32 36 15 3 13 -10 -25
-5 -60 30 -118 -103 -12 -17 -54
18 -46 46 -41 -26 43 79 -73
-20 25 35 69 -2 -11 -11 59
-67 -20 20 -14 24 -38 -5 -76
-6 -23 52 -33 9 -8 -57 -51
42 -23 46 -127 -48 8 -15 -60
-35 5 21 -30 2 33 -28 8
25 13 -14 -14 -50 -4 10 -35
44 79 -52 7 -15 -58 -48 -47
-58 -15 -5 -23 -32 -40 -35 18
-127 -31 80 2 -7 -45 -53 35
-41 -28 16 -48 39 -15 -67 10
-6 -64 27 -69 -47 63 -79 -18

sequential/mobilenetv2_0.35_99/block_15_project/Conv2D i1 [56, 1, 1, 336]
00000000: fae9 2be3 131f ee09 edf4 ce5c eb2b c6ca
00000010: 37fa f9d2 bae9 0c03 16ec f41c e49f deb7
00000020: 15fc 2ba6 2a04 0518 14e1 2a1f e5a2 3105
00000030: fde3 e6ec dff1 fbd6 1add ffdb 4007 471c
00000040: 29eb 0e09 085e 5b1b 45f1 e8f6 fc05 e1ea
00000050: fccb 4cfb 1849 4cff 2425 0dd8 f007 4537
00000060: fe28 32b8 1516 ab3e 12f6 f443 ba49 17fd
00000070: cc3c 060e 0de6 11e8 e017 e00c c432 eb2e
00000080: 1b74 b914 fc04 0c31 ef57 c936 113b 1840
00000090: 5013 d865 e327 0ade b012 27db 0b0f 0d3e
000000a0: 1d16 c7dd 3f43 eacb 1123 cb29 f8f0 9534
000000b0: 1bd0 ed3c 04d6 06fa de17 3602 bce6 f5d6
000000c0: 8841 1d12 1734 4318 d915 f2ed d314 b1e7
000000d0: d0cb 2b00 81d9 e218 e8d9 0dca 3afb 2733
000000e0: 2cb3 21d5 3007 782a d816 33f9 0bf5 c017
000000f0: 18fc 9df7 f9f1 08f1 2c1b 1507 5dd9 9903
-6 -23 43 -29 19 31 -18 9
-19 -12 -50 92 -21 43 -58 -54
55 -6 -7 -46 -70 -23 12 3
22 -20 -12 28 -28 -97 -34 -73
21 -4 43 -90 42 4 5 24
20 -31 42 31 -27 -94 49 5
-3 -29 -26 -20 -33 -15 -5 -42
26 -35 -1 -37 64 7 71 28
41 -21 14 9 8 94 91 27
69 -15 -24 -10 -4 5 -31 -22
-4 -53 76 -5 24 73 76 -1
36 37 13 -40 -16 7 69 55
-2 40 50 -72 21 22 -85 62
18 -10 -12 67 -70 73 23 -3
-52 60 6 14 13 -26 17 -24
-32 23 -32 12 -60 50 -21 46
27 116 -71 20 -4 4 12 49
-17 87 -55 54 17 59 24 64
80 19 -40 101 -29 39 10 -34
-80 18 39 -37 11 15 13 62
29 22 -57 -35 63 67 -22 -53
17 35 -53 41 -8 -16 -107 52
27 -48 -19 60 4 -42 6 -6
-34 23 54 2 -68 -26 -11 -42
-120 65 29 18 23 52 67 24
-39 21 -14 -19 -45 20 -79 -25
-48 -53 43 0 -127 -39 -30 24
-24 -39 13 -54 58 -5 39 51
44 -77 33 -43 48 7 120 42
-40 22 51 -7 11 -11 -64 23
24 -4 -99 -9 -7 -15 8 -15
44 27 21 7 93 -39 -103 3

sequential/mobilenetv2_0.35_99/block_15_depthwise_BN/FusedBatchNormV3;sequential/mobilenetv2_0.35_99/block_15_depthwise/depthwise;sequential/mobilenetv2_0.35_99/block_16_depthwise/depthwise i1 [1, 3, 3, 336]
00000000: 1282 bd7f 3120 8f0a 34f2 aa37 163f 10f6
00000010: 5b07 95eb 33ef d8f9 4753 e887 05d6 d8b5
00000020: c1f1 d5c8 320d 3847 9b9a f265 21c9 f6d4
00000030: 1e0e 039f a2df 7f7f 4346 7f0b a02d a2d7
00000040: abee 7fea 2b7f 0f7f 7f40 7fd6 11fe 0e25
00000050: e426 e91d d30e e08f eaaa 97d9 cdf2 f04c
00000060: bee3 fea3 7f2a db21 ee04 7f9b c01d 7fd3
00000070: 2cdb bfe9 d8ef 32f7 597f cce9 2c82 d8f7
00000080: 7f7f 457f 78d6 cc7b a9c4 147f 01f0 98c7
00000090: d22b 5763 d4e3 23a4 0110 1c2c 9da1 c381
000000a0: a20a f349 c014 0f14 6808 e11f 5381 d3cb
000000b0: 392e 7f2a 069b 0743 d8c1 ec06 ddf6 999f
000000c0: 08d2 c6bc da7f d395 7f46 59cf 0747 0131
000000d0: 9f31 d24d 1df9 3e1b 2f81 317f 30de c1df
000000e0: 204e c3ed fb30 71bc ffdd ca18 a22c 71c2
000000f0: 30b3 e67f dec5 fab5 16f4 ca55 d04e e15e
18 -126 -67 127 49 32 -113 10
52 -14 -86 55 22 63 16 -10
91 7 -107 -21 51 -17 -40 -7
71 83 -24 -121 5 -42 -40 -75
-63 -15 -43 -56 50 13 56 71
-101 -102 -14 101 33 -55 -10 -44
30 14 3 -97 -94 -33 127 127
67 70 127 11 -96 45 -94 -41
-85 -18 127 -22 43 127 15 127
127 64 127 -42 17 -2 14 37
-28 38 -23 29 -45 14 -32 -113
-22 -86 -105 -39 -51 -14 -16 76
-66 -29 -2 -93 127 42 -37 33
-18 4 127 -101 -64 29 127 -45
44 -37 -65 -23 -40 -17 50 -9
89 127 -52 -23 44 -126 -40 -9
127 127 69 127 120 -42 -52 123
-87 -60 20 127 1 -16 -104 -57
-46 43 87 99 -44 -29 35 -92
1 16 28 44 -99 -95 -61 -127
-94 10 -13 73 -64 20 15 20
104 8 -31 31 83 -127 -45 -53
57 46 127 42 6 -101 7 67
-40 -63 -20 6 -35 -10 -103 -97
8 -46 -58 -68 -38 127 -45 -107
127 70 89 -49 7 71 1 49
-97 49 -46 77 29 -7 62 27
47 -127 49 127 48 -34 -63 -33
32 78 -61 -19 -5 48 113 -68
-1 -35 -54 24 -94 44 113 -62
48 -77 -26 127 -34 -59 -6 -75
22 -12 -54 85 -48 78 -31 94

sequential/mobilenetv2_0.35_99/block_15_expand/Conv2D i1 [336, 1, 1, 56]
00000000: 0de3 3506 14ba f520 aaa4 d375 4d34 4b10
00000010: e1e0 d619 e23d bfef 4931 f819 3d93 f0bc
00000020: c9e4 5f1f fb30 341e df12 06e5 291e 2a18
00000030: b5f3 7ff5 f42f 2cf7 f90d c220 ee42 591e
00000040: ea81 2cab 30d5 7a36 0a31 00fd f1db 0305
00000050: be25 460d 3838 e62f 3407 f5f3 3344 4a3f
00000060: 13ee 4927 522a f006 040a 0a0d f124 1dfe
00000070: 19e8 ea05 a707 417f 1c1c e4bf 3037 eaf3
00000080: fec7 1b0e 01d1 56fd e4f4 b3fd d1a6 a046
00000090: 4240 330f a901 b3e3 0138 4eee 3e19 0102
000000a0: c514 fefc 5a3b 37d5 00e1 fbea ffe6 4608
000000b0: dec2 e852 d579 f2e4 8501 d829 2b35 33f3
000000c0: 1418 15bc d156 e8e5 3412 fb46 d4b8 feda
000000d0: 2b16 e9c7 7fd8 434f 151e 00ed fba6 2e4b
000000e0: 62dc eef0 8121 63e9 13cf f711 1d2e 2c01
000000f0: ca0a 5a58 0bbe eaa4 0444 ed0d abf6 1817
13 -29 53 6 20 -70 -11 32
-86 -92 -45 117 77 52 75 16
-31 -32 -42 25 -30 61 -65 -17
73 49 -8 25 61 -109 -16 -68
-55 -28 95 31 -5 48 52 30
-33 18 6 -27 41 30 42 24
-75 -13 127 -11 -12 47 44 -9
-7 13 -62 32 -18 66 89 30
-22 -127 44 -85 48 -43 122 54
10 49 0 -3 -15 -37 3 5
-66 37 70 13 56 56 -26 47
52 7 -11 -13 51 68 74 63
19 -18 73 39 82 42 -16 6
4 10 10 13 -15 36 29 -2
25 -24 -22 5 -89 7 65 127
28 28 -28 -65 48 55 -22 -13
-2 -57 27 14 1 -47 86 -3
-28 -12 -77 -3 -47 -90 -96 70
66 64 51 15 -87 1 -77 -29
1 56 78 -18 62 25 1 2
-59 20 -2 -4 90 59 55 -43
0 -31 -5 -22 -1 -26 70 8
-34 -62 -24 82 -43 121 -14 -28
-123 1 -40 41 43 53 51 -13
20 24 21 -68 -47 86 -24 -27
52 18 -5 70 -44 -72 -2 -38
43 22 -23 -57 127 -40 67 79
21 30 0 -19 -5 -90 46 75
98 -36 -18 -16 -127 33 99 -23
19 -49 -9 17 29 46 44 1
-54 10 90 88 11 -66 -22 -92
4 68 -19 13 -85 -10 24 23

sequential/mobilenetv2_0.35_99/block_14_project/Conv2D i1 [56, 1, 1, 336]
00000000: 1b6a c50a 3d2f 4d41 1b1b f518 cc04 fe47
00000010: 2dd4 f41b cf30 e741 219c ed11 25a9 17f7
00000020: 03e7 0af5 31ff e241 3ee3 11d8 f6e4 40f0
00000030: 76f5 ec13 fad1 9b3b 1ce5 3ab0 2416 11ef
00000040: bec2 0af2 f5e1 2409 e633 1a1c 36f5 1590
00000050: cdee 4412 14d0 462f f634 edd7 5018 d51f
00000060: 1d0a b6b3 f21c 1111 cb6d d0bd 00f7 03e6
00000070: 4ff3 183a f9ea c53e 0124 e553 e80d fb2b
00000080: f1e2 13e5 e310 c523 5a14 0ff9 0318 391d
00000090: 06fe ebe9 eebe f1b8 60eb 0c12 4620 efdb
000000a0: 2dd9 0e27 0834 67eb 1abb 25fc 18fd 14d5
000000b0: 0be9 5126 41df 0602 efeb 1d2f d236 cbc5
000000c0: 0133 d33d 2ccd fcfb 4a0b deb2 0ae6 413f
000000d0: b4e7 cbea 3e0f 27f9 2e0e 06ea bf24 2de7
000000e0: e1c4 9e18 17df aff5 e309 cb21 1146 0ce5
000000f0: 00f7 42fd c80d e30b da40 fae0 fe3d 2b0d
27 106 -59 10 61 47 77 65
27 27 -11 24 -52 4 -2 71
45 -44 -12 27 -49 48 -25 65
33 -100 -19 17 37 -87 23 -9
3 -25 10 -11 49 -1 -30 65
62 -29 17 -40 -10 -28 64 -16
118 -11 -20 19 -6 -47 -101 59
28 -27 58 -80 36 22 17 -17
-66 -62 10 -14 -11 -31 36 9
-26 51 26 28 54 -11 21 -112
-51 -18 68 18 20 -48 70 47
-10 52 -19 -41 80 24 -43 31
29 10 -74 -77 -14 28 17 17
-53 109 -48 -67 0 -9 3 -26
79 -13 24 58 -7 -22 -59 62
1 36 -27 83 -24 13 -5 43
-15 -30 19 -27 -29 16 -59 35
90 20 15 -7 3 24 57 29
6 -2 -21 -23 -18 -66 -15 -72
96 -21 12 18 70 32 -17 -37
45 -39 14 39 8 52 103 -21
26 -69 37 -4 24 -3 20 -43
11 -23 81 38 65 -33 6 2
-17 -21 29 47 -46 54 -53 -59
1 51 -45 61 44 -51 -4 -5
74 11 -34 -78 10 -26 65 63
-76 -25 -53 -22 62 15 39 -7
46 14 6 -22 -65 36 45 -25
-31 -60 -98 24 23 -33 -81 -11
-29 9 -53 33 17 70 12 -27
0 -9 66 -3 -56 13 -29 11
-38 64 -6 -32 -2 61 43 13

sequential/mobilenetv2_0.35_99/block_14_depthwise_BN/FusedBatchNormV3;sequential/mobilenetv2_0.35_99/block_14_depthwise/depthwise;sequential/mobilenetv2_0.35_99/block_16_depthwise/depthwise i1 [1, 3, 3, 336]
00000000: 841f 2d53 2d13 b1b4 8127 51fe 04f2 48fb
00000010: fc81 3910 d87f fd81 1433 8104 2104 03e8
00000020: a5ff e0e3 2797 4167 c112 ce0e eccf 9a6e
00000030: 7fe9 d681 151d afc9 d211 e701 dfce f97f
00000040: 367f c6f1 a51c f881 45f6 1a29 d1f8 e9b7
00000050: 1245 7fe6 b7bc 12c2 fdf2 057f bcf7 2119
00000060: f63c be2d 0536 d413 3100 017f ea16 25d5
00000070: 0149 d326 8157 e6a3 2441 fc5e 26f4 813e
00000080: 17ae e486 7f79 a0c8 1106 ba0b f5c8 d5cb
00000090: a462 fc0e 12d4 f0e7 03c9 3732 81aa 4d0a
000000a0: 7f7f 3081 99f4 7ff0 1b55 f70d a40f c0c9
000000b0: e46f 2629 6bbd f801 c500 9d34 dbe7 d44d
000000c0: 5eff 1ad9 7f07 7f5f 3ec3 b5f9 bc7f ae5c
000000d0: e311 e0f4 05bc 6a9b c876 23e9 4ebc 700e
000000e0: ad7f f2e4 cc42 adb6 ff75 b28e 35ee 030b
000000f0: c104 3b2e b50e cae7 01ef 0d62 040e 75f7
-124 31 45 83 45 19 -79 -76
-127 39 81 -2 4 -14 72 -5
-4 -127 57 16 -40 127 -3 -127
20 51 -127 4 33 4 3 -24
-91 -1 -32 -29 39 -105 65 103
-63 18 -50 14 -20 -49 -102 110
127 -23 -42 -127 21 29 -81 -55
-46 17 -25 1 -33 -50 -7 127
54 127 -58 -15 -91 28 -8 -127
69 -10 26 41 -47 -8 -23 -73
18 69 127 -26 -73 -68 18 -62
-3 -14 5 127 -68 -9 33 25
-10 60 -66 45 5 54 -44 19
49 0 1 127 -22 22 37 -43
1 73 -45 38 -127 87 -26 -93
36 65 -4 94 38 -12 -127 62
23 -82 -28 -122 127 121 -96 -56
17 6 -70 11 -11 -56 -43 -53
-92 98 -4 14 18 -44 -16 -25
3 -55 55 50 -127 -86 77 10
127 127 48 -127 -103 -12 127 -16
27 85 -9 13 -92 15 -64 -55
-28 111 38 41 107 -67 -8 1
-59 0 -99 52 -37 -25 -44 77
94 -1 26 -39 127 7 127 95
62 -61 -75 -7 -68 127 -82 92
-29 17 -32 -12 5 -68 106 -101
-56 118 35 -23 78 -68 112 14
-83 127 -14 -28 -52 66 -83 -74
-1 117 -78 -114 53 -18 3 11
-63 4 59 46 -75 14 -54 -25
1 -17 13 98 4 14 117 -9

sequential/mobilenetv2_0.35_99/block_14_expand/Conv2D i1 [336, 1, 1, 56]
00000000: e85a 0c81 0ccd 69e2 1309 ffef 3036 c110
00000010: e6ca 2bd8 fdfe 14e9 1949 2e13 15e6 342e
00000020: 1929 efa8 d7dc 2cfa 0a53 cdf9 ffe0 19c1
00000030: bdf9 f8f1 6dc6 d3ca 44de a316 52df f117
00000040: 42f1 04d8 81df 12f9 06eb 86f3 1ff7 1b36
00000050: b642 1026 443e c825 081b 3124 f7ca 6baf
00000060: 40ec c905 6542 369f 09c4 eb06 41a7 dcb6
00000070: 3def e9aa 1e7f 1542 3ee1 5acf bb22 4012
00000080: ffa7 1a1c 2fee a770 6e5a f5a1 9b1f 5f16
00000090: 33ee 1101 ede0 88d7 101f da02 0b03 f05f
000000a0: df17 07a6 df10 39ca 25d0 29fd 816f e4e5
000000b0: 0a33 fe29 e50b 1dfb aa30 00e6 e3f0 e914
000000c0: 1953 3cfd eef4 e8d7 d258 e5ce de1f 15c9
000000d0: 38d7 01df 1ad4 3830 1aa4 fcd6 5de6 2b18
000000e0: 73fd 3e0a 17d1 340a dd1d f71f e5fd 31b1
000000f0: 4be3 2c25 0ce6 b15b 192a c6bf 0082 ea23
-24 90 12 -127 12 -51 105 -30
19 9 -1 -17 48 54 -63 16
-26 -54 43 -40 -3 -2 20 -23
25 73 46 19 21 -26 52 46
25 41 -17 -88 -41 -36 44 -6
10 83 -51 -7 -1 -32 25 -63
-67 -7 -8 -15 109 -58 -45 -54
68 -34 -93 22 82 -33 -15 23
66 -15 4 -40 -127 -33 18 -7
6 -21 -122 -13 31 -9 27 54
-74 66 16 38 68 62 -56 37
8 27 49 36 -9 -54 107 -81
64 -20 -55 5 101 66 54 -97
9 -60 -21 6 65 -89 -36 -74
61 -17 -23 -86 30 127 21 66
62 -31 90 -49 -69 34 64 18
-1 -89 26 28 47 -18 -89 112
110 90 -11 -95 -101 31 95 22
51 -18 17 1 -19 -32 -120 -41
16 31 -38 2 11 3 -16 95
-33 23 7 -90 -33 16 57 -54
37 -48 41 -3 -127 111 -28 -27
10 51 -2 41 -27 11 29 -5
-86 48 0 -26 -29 -16 -23 20
25 83 60 -3 -18 -12 -24 -41
-46 88 -27 -50 -34 31 21 -55
56 -41 1 -33 26 -44 56 48
26 -92 -4 -42 93 -26 43 24
115 -3 62 10 23 -47 52 10
-35 29 -9 31 -27 -3 49 -79
75 -29 44 37 12 -26 -79 91
25 42 -58 -65 0 -126 -22 35

sequential/mobilenetv2_0.35_99/block_13_project/Conv2D i1 [56, 1, 1, 192]
00000000: 4057 dc51 22de 3981 dcca ed20 fd21 bede
00000010: de44 dac9 bbde c718 e810 4406 f734 d5e1
00000020: f2bd a82d 15aa e316 98c5 3651 580f 23fd
00000030: dbeb 23dc ede5 ebf1 eabf 1d36 c510 57c9
00000040: cb29 eef5 8fc8 ebff bce3 f6ed 4909 f414
00000050: ea52 232a 2ff7 132f b9c5 0425 a6bf 02f8
00000060: 3015 03f6 12f5 d6d8 11f1 0f22 54b4 ddce
00000070: efef 9105 f81c f31b 0ef5 fd02 fc00 00d1
00000080: 11e6 1501 6733 46d3 f207 ffe7 2d12 ac4d
00000090: d9b9 0101 3124 b4b1 d3f4 0023 212e 5b0b
000000a0: fe8a 23fb 0cd5 0af2 1d1f d5af d644 d01c
000000b0: ebea 12cc e63b 0504 d0de 4c0a 0d00 f307
000000c0: 1ce1 e60a ea32 4810 3f18 bef1 0410 e127
000000d0: 34c1 b322 c1e8 d707 1709 2a42 b7e2 cb15
000000e0: 1403 d3ef c5f1 1d06 0de3 fd20 3be6 2154
000000f0: 22ff 221e cb3d 0fce 21fe 05d9 f80c 2cb4
64 87 -36 81 34 -34 57 -127
-36 -54 -19 32 -3 33 -66 -34
-34 68 -38 -55 -69 -34 -57 24
-24 16 68 6 -9 52 -43 -31
-14 -67 -88 45 21 -86 -29 22
-104 -59 54 81 88 15 35 -3
-37 -21 35 -36 -19 -27 -21 -15
-22 -65 29 54 -59 16 87 -55
-53 41 -18 -11 -113 -56 -21 -1
-68 -29 -10 -19 73 9 -12 20
-22 82 35 42 47 -9 19 47
-71 -59 4 37 -90 -65 2 -8
48 21 3 -10 18 -11 -42 -40
17 -15 15 34 84 -76 -35 -50
-17 -17 -111 5 -8 28 -13 27
14 -11 -3 2 -4 0 0 -47
17 -26 21 1 103 51 70 -45
-14 7 -1 -25 45 18 -84 77
-39 -71 1 1 49 36 -76 -79
-45 -12 0 35 33 46 91 11
-2 -118 35 -5 12 -43 10 -14
29 31 -43 -81 -42 68 -48 28
-21 -22 18 -52 -26 59 5 4
-48 -34 76 10 13 0 -13 7
28 -31 -26 10 -22 50 72 16
63 24 -66 -15 4 16 -31 39
52 -63 -77 34 -63 -24 -41 7
23 9 42 66 -73 -30 -53 21
20 3 -45 -17 -59 -15 29 6
13 -29 -3 32 59 -26 33 84
34 -1 34 30 -53 61 15 -50
33 -2 5 -39 -8 12 44 -76

sequential/mobilenetv2_0.35_99/block_13_depthwise_BN/FusedBatchNormV3;sequential/mobilenetv2_0.35_99/block_13_depthwise/depthwise i1 [1, 3, 3, 192]
00000000: 8f14 ac08 f71e 2192 0ce0 56fd 7ecb d433
00000010: b7b8 2f7f 7fc4 19ff 1ed8 47a6 d73b ffcd
00000020: 4685 7a29 7f2a 906a 0e38 5233 7f7f 8139
00000030: b8b4 2417 e4f2 2313 f41f 004d de0f 2258
00000040: 4ba5 25f4 dabd a842 d44f 0881 87c1 97cb
00000050: 81c5 b4cb b343 4c36 28f2 b1ff 153c da23
00000060: 28ef fdd7 e6af ab36 4e81 3c0b 13e2 cd3d
00000070: 3228 ac03 7805 bc6a ed81 0ae8 c685 dce1
00000080: bfae e6c1 7f81 1a25 294f 1d23 b47e 3712
00000090: fee8 1b9f ec41 ac19 c204 4581 d05a d372
000000a0: 812b b7c3 e922 39a2 f881 eb81 8543 eee1
000000b0: c581 49ae 18de 3d4e 363a 2af5 b5f8 3681
000000c0: 1b06 c423 394c f812 fd0c 22dd e9cb 45e2
000000d0: f31c 0cbd 96a7 ee09 23c7 e634 eb0f 0a3e
000000e0: 22ca 1ec8 1cf8 2c19 1806 e1d8 ef26 1484
000000f0: 3189 8552 4281 167a 2fed 4b02 c711 2f97
-113 20 -84 8 -9 30 33 -110
12 -32 86 -3 126 -53 -44 51
-73 -72 47 127 127 -60 25 -1
30 -40 71 -90 -41 59 -1 -51
70 -123 122 41 127 42 -112 106
14 56 82 51 127 127 -127 57
-72 -76 36 23 -28 -14 35 19
-12 31 0 77 -34 15 34 88
75 -91 37 -12 -38 -67 -88 66
-44 79 8 -127 -121 -63 -105 -53
-127 -59 -76 -53 -77 67 76 54
40 -14 -79 -1 21 60 -38 35
40 -17 -3 -41 -26 -81 -85 54
78 -127 60 11 19 -30 -51 61
50 40 -84 3 120 5 -68 106
-19 -127 10 -24 -58 -123 -36 -31
-65 -82 -26 -63 127 -127 26 37
41 79 29 35 -76 126 55 18
-2 -24 27 -97 -20 65 -84 25
-62 4 69 -127 -48 90 -45 114
-127 43 -73 -61 -23 34 57 -94
-8 -127 -21 -127 -123 67 -18 -31
-59 -127 73 -82 24 -34 61 78
54 58 42 -11 -75 -8 54 -127
27 6 -60 35 57 76 -8 18
-3 12 34 -35 -23 -53 69 -30
-13 28 12 -67 -106 -89 -18 9
35 -57 -26 52 -21 15 10 62
34 -54 30 -56 28 -8 44 25
24 6 -31 -40 -17 38 20 -124
49 -119 -123 82 66 -127 22 122
47 -19 75 2 -57 17 47 -105

sequential/mobilenetv2_0.35_99/block_13_expand/Conv2D i1 [192, 1, 1, 32]
00000000: 3f2d 9805 ca02 30fc a835 3343 11ce 070e
00000010: 0100 dba4 2fd2 8ffe eadc 0812 812a 51f2
00000020: 0a3f c1b7 bec0 1323 92c4 2995 7f31 3936
00000030: af20 0136 2211 3be2 2c07 f747 7a3a e9b0
00000040: 24ef 3b6b 1f35 c747 27e6 ab28 06d7 df35
00000050: 135a d702 31bf fbf3 7f2d 2230 fdde 1923
00000060: 5cce de49 24f1 c6b0 bdd0 f7c8 9cf4 10b8
00000070: 28e0 6cf0 2a81 b63c bb87 07cc b1cc af0d
00000080: 4724 07d6 21f5 31f4 b297 ee17 eaf8 2bd9
00000090: 0dca ea46 0dd4 18eb d3f3 e3dd 0e81 303f
000000a0: 1ec4 3ae3 f6f5 e713 1181 fc0e fe2b 210a
000000b0: 160e 3b10 1ac9 4603 c615 e547 3af3 32bd
000000c0: cedc cfcb 450d b9a7 d6ea e1f1 4848 1d1e
000000d0: c5e9 0336 742a d981 a7cb da20 7ff2 03f8
000000e0: e427 5d00 effc cd40 f123 f6e0 f50f 184a
000000f0: fbe3 2e81 b9a4 e90a 1734 f0c5 33f6 f404
63 45 -104 5 -54 2 48 -4
-88 53 51 67 17 -50 7 14
1 0 -37 -92 47 -46 -113 -2
-22 -36 8 18 -127 42 81 -14
10 63 -63 -73 -66 -64 19 35
-110 -60 41 -107 127 49 57 54
-81 32 1 54 34 17 59 -30
44 7 -9 71 122 58 -23 -80
36 -17 59 107 31 53 -57 71
39 -26 -85 40 6 -41 -33 53
19 90 -41 2 49 -65 -5 -13
127 45 34 48 -3 -34 25 35
92 -50 -34 73 36 -15 -58 -80
-67 -48 -9 -56 -100 -12 16 -72
40 -32 108 -16 42 -127 -74 60
-69 -121 7 -52 -79 -52 -81 13
71 36 7 -42 33 -11 49 -12
-78 -105 -18 23 -22 -8 43 -39
13 -54 -22 70 13 -44 24 -21
-45 -13 -29 -35 14 -127 48 63
30 -60 58 -29 -10 -11 -25 19
17 -127 -4 14 -2 43 33 10
22 14 59 16 26 -55 70 3
-58 21 -27 71 58 -13 50 -67
-50 -36 -49 -53 69 13 -71 -89
-42 -22 -31 -15 72 72 29 30
-59 -23 3 54 116 42 -39 -127
-89 -53 -38 32 127 -14 3 -8
-28 39 93 0 -17 -4 -51 64
-15 35 -10 -32 -11 15 24 74
-5 -29 46 -127 -71 -92 -23 10
23 52 -16 -59 51 -10 -12 4

sequential/mobilenetv2_0.35_99/block_12_project/Conv2D i1 [32, 1, 1, 192]
00000000: 390b 0b45 35d3 12fd 01c4 8128 5914 de3f
00000010: da15 f1a7 1db5 faf8 1f3d e002 faf9 f41d
00000020: 08e5 fae8 cd2e 491d 1c05 15d1 0353 1441
00000030: 4f03 fbf0 ddc9 efe1 f5da b620 e61d a7df
00000040: 12d0 2513 14ed b8a1 f5d3 2fed 3ae0 37da
00000050: d9e6 fc1d 1a31 30b1 e234 271d 14fa dc32
00000060: 6933 a6f3 fb05 8e31 2d0b a9e8 fce2 fa0a
00000070: eb6f f4c8 4807 0e1a deff 2dd9 28eb 2cf6
00000080: 1d08 330c f446 5a13 3ff1 b700 1903 29c8
00000090: 1822 002a d2d1 c6be a32b 0100 f5c5 dc20
000000a0: 4a01 cdce 48a8 ad15 e2e3 d20a ef88 4263
000000b0: 1831 c9dd f8d2 b9fe 57f0 eba9 f427 3f0a
000000c0: d30b 10eb 1b11 3ffe 36fa 0efd 183a 0d15
000000d0: e2d3 24de cfff 1619 f934 31e7 0702 bef0
000000e0: dbfd 28c5 019a f909 f9fd 3ee3 3ae0 d911
000000f0: fd9b d736 e711 d01d 0203 34b4 dec3 4408
57 11 11 69 53 -45 18 -3
1 -60 -127 40 89 20 -34 63
-38 21 -15 -89 29 -75 -6 -8
31 61 -32 2 -6 -7 -12 29
8 -27 -6 -24 -51 46 73 29
28 5 21 -47 3 83 20 65
79 3 -5 -16 -35 -55 -17 -31
-11 -38 -74 32 -26 29 -89 -33
18 -48 37 19 20 -19 -72 -95
-11 -45 47 -19 58 -32 55 -38
-39 -26 -4 29 26 49 48 -79
-30 52 39 29 20 -6 -36 50
105 51 -90 -13 -5 5 -114 49
45 11 -87 -24 -4 -30 -6 10
-21 111 -12 -56 72 7 14 26
-34 -1 45 -39 40 -21 44 -10
29 8 51 12 -12 70 90 19
63 -15 -73 0 25 3 41 -56
24 34 0 42 -46 -47 -58 -66
-93 43 1 0 -11 -59 -36 32
74 1 -51 -50 72 -88 -83 21
-30 -29 -46 10 -17 -120 66 99
24 49 -55 -35 -8 -46 -71 -2
87 -16 -21 -87 -12 39 63 10
-45 11 16 -21 27 17 63 -2
54 -6 14 -3 24 58 13 21
-30 -45 36 -34 -49 -1 22 25
-7 52 49 -25 7 2 -66 -16
-37 -3 40 -59 1 -102 -7 9
-7 -3 62 -29 58 -32 -39 17
-3 -101 -41 54 -25 17 -48 29
2 3 52 -76 -34 -61 68 8

sequential/mobilenetv2_0.35_99/block_12_depthwise_BN/FusedBatchNormV3;sequential/mobilenetv2_0.35_99/block_12_depthwise/depthwise;sequential/mobilenetv2_0.35_99/block_13_depthwise/depthwise i1 [1, 3, 3, 192]
00000000: a0c7 e134 747f ed07 26cc 817f f681 dfda
00000010: fd86 ecd4 7f0b e77f ddf5 97c0 ac17 05c3
00000020: f8c0 10fc 7fd0 7f10 50dc 7f09 2d84 b5fc
00000030: 8bd7 9d7f d918 5646 e8cf 7f5f f506 d779
00000040: bfbc 6a29 df87 bac2 fd64 836f 81cd 7f1e
00000050: 9d6f 7f17 138e cd7f c881 f2fe e414 cc4f
00000060: 520f 7f7f cee6 4cd2 7fad 1833 cb1a fff5
00000070: b3ce 2792 c375 6640 7ff5 b831 0030 1e7f
00000080: 7f4d 4508 f8b3 a57f 4bfc ff4d 0828 f817
00000090: aaf5 b53a d6cb 3ed0 7f81 d59f 7ff9 431f
000000a0: ee96 10df 3708 812e 256b 2674 dcc2 d8ff
000000b0: 094c 5c20 9968 e690 7f11 fe48 b9c0 ae99
000000c0: f97f f27f b3dd 4201 7347 841b 287c 7fc1
000000d0: 7fe9 1db7 f4c5 7fbb 517d ad00 03c6 2226
000000e0: f3e9 58de 353a 0a11 ae57 7f9b a6ab f52b
000000f0: 7f17 f24d 250c 3452 7fc2 bcbb 963d f27f
-96 -57 -31 52 116 127 -19 7
38 -52 -127 127 -10 -127 -33 -38
-3 -122 -20 -44 127 11 -25 127
-35 -11 -105 -64 -84 23 5 -61
-8 -64 16 -4 127 -48 127 16
80 -36 127 9 45 -124 -75 -4
-117 -41 -99 127 -39 24 86 70
-24 -49 127 95 -11 6 -41 121
-65 -68 106 41 -33 -121 -70 -62
-3 100 -125 111 -127 -51 127 30
-99 111 127 23 19 -114 -51 127
-56 -127 -14 -2 -28 20 -52 79
82 15 127 127 -50 -26 76 -46
127 -83 24 51 -53 26 -1 -11
-77 -50 39 -110 -61 117 102 64
127 -11 -72 49 0 48 30 127
127 77 69 8 -8 -77 -91 127
75 -4 -1 77 8 40 -8 23
-86 -11 -75 58 -42 -53 62 -48
127 -127 -43 -97 127 -7 67 31
-18 -106 16 -33 55 8 -127 46
37 107 38 116 -36 -62 -40 -1
9 76 92 32 -103 104 -26 -112
127 17 -2 72 -71 -64 -82 -103
-7 127 -14 127 -77 -35 66 1
115 71 -124 27 40 124 127 -63
127 -23 29 -73 -12 -59 127 -69
81 125 -83 0 3 -58 34 38
-13 -23 88 -34 53 58 10 17
-82 87 127 -101 -90 -85 -11 43
127 23 -14 77 37 12 52 82
127 -62 -68 -69 -106 61 -14 127

sequential/mobilenetv2_0.35_99/block_12_expand/Conv2D i1 [192, 1, 1, 32]
00000000: 52f3 c150 d817 cf7b e72a d009 f6f2 f3c0
00000010: bc59 edaa e24f 003f a3f4 cd44 3b18 d781
00000020: 1215 0cc4 aa81 d017 9ad9 454e e803 46f9
00000030: f6de 1b17 e308 efcc dcec d6fa 27c9 0ff2
00000040: ccea 1bf8 d7c1 c1e2 d1ec b740 f681 e0e3
00000050: f42a fff1 d4d9 c2fc e6e9 010e 0507 32ca
00000060: 1bfc e2fe f15f ba1e d825 7f2c 2b1b 1523
00000070: 11de 20f5 c0e2 0317 11d5 ff4f 1ff5 3122
00000080: 0eaf 8107 fce0 42ea d727 1de6 fc13 c2f1
00000090: e7c2 14f7 e215 08f6 e11a 2d5e 0f06 ef1a
000000a0: 062a 30c1 1d45 81f3 714a b5b9 2426 cd12
000000b0: a822 339d 0ca2 e129 2fe5 9f0a 24fd ff1a
000000c0: 2fea 4fc1 ac60 eac1 165d df0d db39 277f
000000d0: 67bc 61de 753b fc52 d5e0 1e1c 40b4 d5e9
000000e0: feaa 0329 040c 35de 05c5 0efe fada 2441
000000f0: 06ed cb23 bb15 eef4 1ccc def9 8e09 81cd
82 -13 -63 80 -40 23 -49 123
-25 42 -48 9 -10 -14 -13 -64
-68 89 -19 -86 -30 79 0 63
-93 -12 -51 68 59 24 -41 -127
18 21 12 -60 -86 -127 -48 23
-102 -39 69 78 -24 3 70 -7
-10 -34 27 23 -29 8 -17 -52
-36 -20 -42 -6 39 -55 15 -14
-52 -22 27 -8 -41 -63 -63 -30
-47 -20 -73 64 -10 -127 -32 -29
-12 42 -1 -15 -44 -39 -62 -4
-26 -23 1 14 5 7 50 -54
27 -4 -30 -2 -15 95 -70 30
-40 37 127 44 43 27 21 35
17 -34 32 -11 -64 -30 3 23
17 -43 -1 79 31 -11 49 34
14 -81 -127 7 -4 -32 66 -22
-41 39 29 -26 -4 19 -62 -15
-25 -62 20 -9 -30 21 8 -10
-31 26 45 94 15 6 -17 26
6 42 48 -63 29 69 -127 -13
113 74 -75 -71 36 38 -51 18
-88 34 51 -99 12 -94 -31 41
47 -27 -97 10 36 -3 -1 26
47 -22 79 -63 -84 96 -22 -63
22 93 -33 13 -37 57 39 127
103 -68 97 -34 117 59 -4 82
-43 -32 30 28 64 -76 -43 -23
-2 -86 3 41 4 12 53 -34
5 -59 14 -2 -6 -38 36 65
6 -19 -53 35 -69 21 -18 -12
28 -52 -34 -7 -114 9 -127 -51

sequential/mobilenetv2_0.35_99/block_11_project/Conv2D i1 [32, 1, 1, 192]
00000000: 09ae 02dd b40e 370c 28f2 b8dd eadc 1501
00000010: ef09 c023 ed45 101d e1f1 2bba ce19 ea11
00000020: 3531 184a 0b24 ddee c8ca d217 0dd2 db44
00000030: e2ef 214b 19d6 3ddc 2a04 d853 1a42 f7f2
00000040: 3eec 11a9 eee1 f90a fafc e8e6 2dbd 1721
00000050: 0a24 12ed 0ced b6d2 43f2 d126 f0f5 cd0f
00000060: f010 1632 f5f4 f4b3 36c2 edd2 2114 284f
00000070: 0eef ed16 02f2 caf5 e54e 14d6 14de fbd8
00000080: f7f1 3a06 fe9e 29bf f722 f7f6 fd15 2a2c
00000090: 130a 24fa 18f4 f516 011a bada f138 dafd
000000a0: dbca 7fdb 49ec f9fe c2e2 2a3c 1903 09d7
000000b0: 0121 016c 4ac5 f347 f31f 130d fb0c d8f2
000000c0: 9b0d f10b f408 f3b3 1cf6 e463 3d1a ecf7
000000d0: e116 9a32 b1c5 1a0d 1acf 48e7 c5c3 250a
000000e0: 3625 142b d2df c11d db34 eada 4d0d 1854
000000f0: 0fff fc34 f036 002f 3fde 2183 d03e 020a
9 -82 2 -35 -76 14 55 12
40 -14 -72 -35 -22 -36 21 1
-17 9 -64 35 -19 69 16 29
-31 -15 43 -70 -50 25 -22 17
53 49 24 74 11 36 -35 -18
-56 -54 -46 23 13 -46 -37 68
-30 -17 33 75 25 -42 61 -36
42 4 -40 83 26 66 -9 -14
62 -20 17 -87 -18 -31 -7 10
-6 -4 -24 -26 45 -67 23 33
10 36 18 -19 12 -19 -74 -46
67 -14 -47 38 -16 -11 -51 15
-16 16 22 50 -11 -12 -12 -77
54 -62 -19 -46 33 20 40 79
14 -17 -19 22 2 -14 -54 -11
-27 78 20 -42 20 -34 -5 -40
-9 -15 58 6 -2 -98 41 -65
-9 34 -9 -10 -3 21 42 44
19 10 36 -6 24 -12 -11 22
1 26 -70 -38 -15 56 -38 -3
-37 -54 127 -37 73 -20 -7 -2
-62 -30 42 60 25 3 9 -41
1 33 1 108 74 -59 -13 71
-13 31 19 13 -5 12 -40 -14
-101 13 -15 11 -12 8 -13 -77
28 -10 -28 99 61 26 -20 -9
-31 22 -102 50 -79 -59 26 13
26 -49 72 -25 -59 -61 37 10
54 37 20 43 -46 -33 -63 29
-37 52 -22 -38 77 13 24 84
15 -1 -4 52 -16 54 0 47
63 -34 33 -125 -48 62 2 10

sequential/mobilenetv2_0.35_99/block_11_depthwise_BN/FusedBatchNormV3;sequential/mobilenetv2_0.35_99/block_11_depthwise/depthwise;sequential/mobilenetv2_0.35_99/block_13_depthwise/depthwise i1 [1, 3, 3, 192]
00000000: e7d8 e7ed 7fee de10 d7eb d5c1 b5c2 f1f9
00000010: 1b82 7f0a eacc c081 ede2 c97f dff9 2fe8
00000020: f3ce fc0b 81ee 3a4a 1321 bdcf ecfd 947f
00000030: f5fb 81f9 0360 0af3 2231 a30e ea98 1a38
00000040: afd9 e471 7fde 7a48 e2d5 4bdb 7fff 1afe
00000050: 159b d009 ddc9 edfa 983c e57f 5fd4 7fd7
00000060: 247f 7f7f de26 1b81 83ef b8f7 1058 0905
00000070: eadd ee7f 074d d585 33cd 0efa d8aa 81ef
00000080: 16de 06d0 2320 b081 c2e9 2c18 4481 3007
00000090: 845f 01bd dace e207 f27f 7fc6 cc1c 20c2
000000a0: 18a6 1a04 0acd 43b3 d284 31b5 438e e4a3
000000b0: d021 1cda efb6 f352 210e 857b f3ac 7ffe
000000c0: 8112 5618 33d9 e902 f2e9 5b38 17d7 c7cc
000000d0: b303 2da1 bf7b 1e00 55de 7ff1 00a2 a5ab
000000e0: 3e81 ba86 76ff 267f 35f8 15e7 d80b 6fe4
000000f0: 36f9 98fd 5830 c614 f5ca 45b3 36bf d745
-25 -40 -25 -19 127 -18 -34 16
-41 -21 -43 -63 -75 -62 -15 -7
27 -126 127 10 -22 -52 -64 -127
-19 -30 -55 127 -33 -7 47 -24
-13 -50 -4 11 -127 -18 58 74
19 33 -67 -49 -20 -3 -108 127
-11 -5 -127 -7 3 96 10 -13
34 49 -93 14 -22 -104 26 56
-81 -39 -28 113 127 -34 122 72
-30 -43 75 -37 127 -1 26 -2
21 -101 -48 9 -35 -55 -19 -6
-104 60 -27 127 95 -44 127 -41
36 127 127 127 -34 38 27 -127
-125 -17 -72 -9 16 88 9 5
-22 -35 -18 127 7 77 -43 -123
51 -51 14 -6 -40 -86 -127 -17
22 -34 6 -48 35 32 -80 -127
-62 -23 44 24 68 -127 48 7
-124 95 1 -67 -38 -50 -30 7
-14 127 127 -58 -52 28 32 -62
24 -90 26 4 10 -51 67 -77
-46 -124 49 -75 67 -114 -28 -93
-48 33 28 -38 -17 -74 -13 82
33 14 -123 123 -13 -84 127 -2
-127 18 86 24 51 -39 -23 2
-14 -23 91 56 23 -41 -57 -52
-77 3 45 -95 -65 123 30 0
85 -34 127 -15 0 -94 -91 -85
62 -127 -70 -122 118 -1 38 127
53 -8 21 -25 -40 11 111 -28
54 -7 -104 -3 88 48 -58 20
-11 -54 69 -77 54 -65 -41 69

sequential/mobilenetv2_0.35_99/block_11_expand/Conv2D i1 [192, 1, 1, 32]
00000000: cd1b b604 030c 110a 2249 b6c1 e83f 0625
00000010: c0e7 0f4a eb44 08e6 c62f ff81 ef37 3ae8
00000020: 0fe0 f9a0 aded 2024 5db7 ee20 b7de 4d24
00000030: eaa9 1cfe 84b1 ad81 ba6b e184 0544 edd5
00000040: ee24 4f51 402c f2be 834a 2e81 5c18 d2e8
00000050: 4800 e7fc c277 f2ac 1511 3b14 3f24 57e3
00000060: d041 cbf9 d87f 1104 c5c8 e1be c8d8 2253
00000070: e7ff 3db7 e177 f1d0 d3c7 cc15 010e 12b5
00000080: 3f81 0511 2ae5 2b1e f3d4 1a60 473b 05f1
00000090: 0314 9105 4134 0bba 7e6d 3244 24f0 f1a0
000000a0: 72db b2ea e1a2 57b0 e726 d4e7 2bdc da7f
000000b0: 1e15 1cce fce5 c89b e25b 0af0 69ae e763
000000c0: 2fd6 b91e 5c37 ecf2 1f16 e601 3f17 d4c9
000000d0: 7fe9 4ee5 1c2c 22f9 37ed 2217 0344 0537
000000e0: 1003 f5e5 dfdb f52e ec07 b356 d5e3 e307
000000f0: 0e4a f4f2 bd2a 7ff8 0b21 21d9 1091 9bda
-51 27 -74 4 3 12 17 10
34 73 -74 -63 -24 63 6 37
-64 -25 15 74 -21 68 8 -26
-58 47 -1 -127 -17 55 58 -24
15 -32 -7 -96 -83 -19 32 36
93 -73 -18 32 -73 -34 77 36
-22 -87 28 -2 -124 -79 -83 -127
-70 107 -31 -124 5 68 -19 -43
-18 36 79 81 64 44 -14 -66
-125 74 46 -127 92 24 -46 -24
72 0 -25 -4 -62 119 -14 -84
21 17 59 20 63 36 87 -29
-48 65 -53 -7 -40 127 17 4
-59 -56 -31 -66 -56 -40 34 83
-25 -1 61 -73 -31 119 -15 -48
-45 -57 -52 21 1 14 18 -75
63 -127 5 17 42 -27 43 30
-13 -44 26 96 71 59 5 -15
3 20 -111 5 65 52 11 -70
126 109 50 68 36 -16 -15 -96
114 -37 -78 -22 -31 -94 87 -80
-25 38 -44 -25 43 -36 -38 127
30 21 28 -50 -4 -27 -56 -101
-30 91 10 -16 105 -82 -25 99
47 -42 -71 30 92 55 -20 -14
31 22 -26 1 63 23 -44 -55
127 -23 78 -27 28 44 34 -7
55 -19 34 23 3 68 5 55
16 3 -11 -27 -33 -37 -11 46
-20 7 -77 86 -43 -29 -29 7
14 74 -12 -14 -67 42 127 -8
11 33 33 -39 16 -111 -101 -38

sequential/mobilenetv2_0.35_99/block_10_project/Conv2D i1 [32, 1, 1, 144]
00000000: 03cf d9d6 f0d8 f8fd f521 03f0 bdfa d611
00000010: 16d9 dcbb 0d20 e8fb 4d23 46a3 ffdf e317
00000020: 00ce f544 35a9 c138 13ea cb23 faaf 4902
00000030: de0a bc7f aaf8 41f2 bfbf 0c07 fd28 e248
00000040: 2f18 143c 32e5 e23e e827 8c10 0726 171d
00000050: 174d 4514 09d8 f84d 2f21 cdec 5b2a eae7
00000060: bec7 a80c bff1 1329 b0d9 28e8 ee2b 34c0
00000070: d422 d348 d3f3 16c2 f81f 20d6 0c1d 3a4f
00000080: 28bc 3c03 48e6 26eb 3463 e731 1455 4b05
00000090: f3ec dd29 fae5 07b5 ed08 fffa 0204 df0f
000000a0: e6ff 1415 1410 ec25 2917 1cec c800 c852
000000b0: 14cd 2d21 0315 fbf0 0281 47c0 efb9 0922
000000c0: 2113 f2f2 1b40 17ea 2122 f1f7 f4ae f90e
000000d0: 0713 d5c8 3f49 0f5d 195b 9e1a c821 6e18
000000e0: 2022 2c31 f53d 2b24 8609 de51 cfc8 cb45
000000f0: f117 25bd c0f8 2806 2aff f0f0 1dd0 e92e
3 -49 -39 -42 -16 -40 -8 -3
-11 33 3 -16 -67 -6 -42 17
22 -39 -36 -69 13 32 -24 -5
77 35 70 -93 -1 -33 -29 23
0 -50 -11 68 53 -87 -63 56
19 -22 -53 35 -6 -81 73 2
-34 10 -68 127 -86 -8 65 -14
-65 -65 12 7 -3 40 -30 72
47 24 20 60 50 -27 -30 62
-24 39 -116 16 7 38 23 29
23 77 69 20 9 -40 -8 77
47 33 -51 -20 91 42 -22 -25
-66 -57 -88 12 -65 -15 19 41
-80 -39 40 -24 -18 43 52 -64
-44 34 -45 72 -45 -13 22 -62
-8 31 32 -42 12 29 58 79
40 -68 60 3 72 -26 38 -21
52 99 -25 49 20 85 75 5
-13 -20 -35 41 -6 -27 7 -75
-19 8 -1 -6 2 4 -33 15
-26 -1 20 21 20 16 -20 37
41 23 28 -20 -56 0 -56 82
20 -51 45 33 3 21 -5 -16
2 -127 71 -64 -17 -71 9 34
33 19 -14 -14 27 64 23 -22
33 34 -15 -9 -12 -82 -7 14
7 19 -43 -56 63 73 15 93
25 91 -98 26 -56 33 110 24
32 34 44 49 -11 61 43 36
-122 9 -34 81 -49 -56 -53 69
-15 23 37 -67 -64 -8 40 6
42 -1 -16 -16 29 -48 -23 46

sequential/mobilenetv2_0.35_99/block_10_depthwise_BN/FusedBatchNormV3;sequential/mobilenetv2_0.35_99/block_10_depthwise/depthwise i1 [1, 3, 3, 144]
00000000: 0361 d0e8 e424 bd08 7fa2 0dbd 05fd 012a
00000010: 2ceb 7fff f2b1 35e6 fed4 e937 900c 06c0
00000020: 0240 0502 ab30 e3d0 dfce efcf daf2 7fc4
00000030: de6e f87f 2a08 1cdf f87f d80f 967f e0f7
00000040: d7ee 2945 d90a ff26 7f55 7f09 7f41 d5d4
00000050: 7ffd 7f7f 42b8 f67f 7fe5 cc3b 01ed e6e3
00000060: 7fa8 cd23 fb29 c5ec 1aca f47f dcc3 3fda
00000070: d73d 6e08 7f14 f67f 4f1d c6fe e4d0 7f0f
00000080: 7fe1 7f7f e4ea f0c3 7fd0 c8fe d00a e1c8
00000090: fc7f f6cf 01f8 b106 2314 7fd2 d5fc e9fe
000000a0: d37f 537f d676 63f0 14ce 1087 de21 32d6
000000b0: c7e1 eb33 4f19 4281 dd32 7fdd 53e2 f5f5
000000c0: c47f 1c35 ba7f a17f 0312 1588 e834 5fb2
000000d0: 030c e7fa f67f c9e1 ffe9 f3f2 563f 2ff8
000000e0: e1e0 4bf8 111c 9948 f15c 01c7 f9e2 2b7f
000000f0: 2381 fc7f 364e ca7f edd5 0024 2ecb 4e7f
3 97 -48 -24 -28 36 -67 8
127 -94 13 -67 5 -3 1 42
44 -21 127 -1 -14 -79 53 -26
-2 -44 -23 55 -112 12 6 -64
2 64 5 2 -85 48 -29 -48
-33 -50 -17 -49 -38 -14 127 -60
-34 110 -8 127 42 8 28 -33
-8 127 -40 15 -106 127 -32 -9
-41 -18 41 69 -39 10 -1 38
127 85 127 9 127 65 -43 -44
127 -3 127 127 66 -72 -10 127
127 -27 -52 59 1 -19 -26 -29
127 -88 -51 35 -5 41 -59 -20
26 -54 -12 127 -36 -61 63 -38
-41 61 110 8 127 20 -10 127
79 29 -58 -2 -28 -48 127 15
127 -31 127 127 -28 -22 -16 -61
127 -48 -56 -2 -48 10 -31 -56
-4 127 -10 -49 1 -8 -79 6
35 20 127 -46 -43 -4 -23 -2
-45 127 83 127 -42 118 99 -16
20 -50 16 -121 -34 33 50 -42
-57 -31 -21 51 79 25 66 -127
-35 50 127 -35 83 -30 -11 -11
-60 127 28 53 -70 127 -95 127
3 18 21 -120 -24 52 95 -78
3 12 -25 -6 -10 127 -55 -31
-1 -23 -13 -14 86 63 47 -8
-31 -32 75 -8 17 28 -103 72
-15 92 1 -57 -7 -30 43 127
35 -127 -4 127 54 78 -54 127
-19 -43 0 36 46 -53 78 127

sequential/mobilenetv2_0.35_99/block_10_expand/Conv2D i1 [144, 1, 1, 24]
00000000: aa33 f01a 03c2 be4a e9c7 a3dd 7fc7 df05
00000010: 71c0 dadb 620e 5930 f3f2 04cf 7fe5 24e3
00000020: e5a8 b90a bd02 ecb8 fed7 e711 c3f5 b23e
00000030: 42d7 6905 3451 1a04 0100 0c1b c01a dcaf
00000040: a0ee 07a6 4626 811f b0fa f941 b723 ce3d
00000050: 9e01 0a23 db7f 0c25 3954 962b 3baf 4347
00000060: 8c92 8136 dad1 46ff f764 a6cc 5fc5 6593
00000070: deac f050 f1e9 0906 e3bd c21b c9da e710
00000080: fdfe 4ec2 7f97 2bca b7f7 f54d 4f9b 4bbe
00000090: cd13 4106 96cd b54c b4fa 08fc 0766 6b74
000000a0: 34ba 7ffe 21b7 d3bb 23fc f6d4 ebf9 35ce
000000b0: 021f fc18 e1e7 e64a e3ea 7fd4 03e6 f624
000000c0: 2ff4 e510 81d8 0c2b e31d 1fa4 380a f82d
000000d0: f6f2 f84e 1102 e920 290e 06fa dcea 1a67
000000e0: 1ffe 0002 fa04 33d1 2c36 810a a836 f2ff
000000f0: e320 e93c ca30 e2df 8195 bd08 16ef 0e2d
-86 51 -16 26 3 -62 -66 74
-23 -57 -93 -35 127 -57 -33 5
113 -64 -38 -37 98 14 89 48
-13 -14 4 -49 127 -27 36 -29
-27 -88 -71 10 -67 2 -20 -72
-2 -41 -25 17 -61 -11 -78 62
66 -41 105 5 52 81 26 4
1 0 12 27 -64 26 -36 -81
-96 -18 7 -90 70 38 -127 31
-80 -6 -7 65 -73 35 -50 61
-98 1 10 35 -37 127 12 37
57 84 -106 43 59 -81 67 71
-116 -110 -127 54 -38 -47 70 -1
-9 100 -90 -52 95 -59 101 -109
-34 -84 -16 80 -15 -23 9 6
-29 -67 -62 27 -55 -38 -25 16
-3 -2 78 -62 127 -105 43 -54
-73 -9 -11 77 79 -101 75 -66
-51 19 65 6 -106 -51 -75 76
-76 -6 8 -4 7 102 107 116
52 -70 127 -2 33 -73 -45 -69
35 -4 -10 -44 -21 -7 53 -50
2 31 -4 24 -31 -25 -26 74
-29 -22 127 -44 3 -26 -10 36
47 -12 -27 16 -127 -40 12 43
-29 29 31 -92 56 10 -8 45
-10 -14 -8 78 17 2 -23 32
41 14 6 -6 -36 -22 26 103
31 -2 0 2 -6 4 51 -47
44 54 -127 10 -88 54 -14 -1
-29 32 -23 60 -54 48 -30 -33
-127 -107 -67 8 22 -17 14 45

sequential/mobilenetv2_0.35_99/block_9_project/Conv2D i1 [24, 1, 1, 144]
00000000: fd1b 08b7 f5ed 3072 2736 170a b3dd ec1d
00000010: dbf5 e3c9 41b6 b918 1ed6 1f0b 3cf2 ee99
00000020: dbe8 ebe9 e317 d420 24b9 e400 e556 11b0
00000030: dc0a bcf4 1854 02ca ad39 f4f1 14f7 f208
00000040: c2f4 f844 30fb 4781 14d9 90f3 25f1 f056
00000050: 12f8 9eb0 c6d1 212e 1028 dcb3 0de6 0ab3
00000060: 0c0a 320b 0d6c e331 44fd cbfc 3f27 5ce7
00000070: 526c da34 77da 251f a535 ebcc e516 ec26
00000080: eece 28e4 e6ee 2600 dcf1 2ad6 e6e7 e7bc
00000090: c9dc bbc8 d3e9 5afc d138 e232 d1d5 12ee
000000a0: eddd 2ff2 d1f3 18c4 d92c d5ed 3f52 d6f8
000000b0: 29c4 043b 2f3a 72e8 00fb cc07 ebeb 2b1f
000000c0: 794d e705 fefc 1e03 adf7 21da f4dc 4705
000000d0: 3ab9 41b6 286d 0de6 7ff7 2c1f 0223 6926
000000e0: e41c c8d8 150f f2e8 e3d2 09dd d1fa 030d
000000f0: d9f2 e6e1 fcd4 1b0e 060e f9a6 02f6 0e06
-3 27 8 -73 -11 -19 48 114
39 54 23 10 -77 -35 -20 29
-37 -11 -29 -55 65 -74 -71 24
30 -42 31 11 60 -14 -18 -103
-37 -24 -21 -23 -29 23 -44 32
36 -71 -28 0 -27 86 17 -80
-36 10 -68 -12 24 84 2 -54
-83 57 -12 -15 20 -9 -14 8
-62 -12 -8 68 48 -5 71 -127
20 -39 -112 -13 37 -15 -16 86
18 -8 -98 -80 -58 -47 33 46
16 40 -36 -77 13 -26 10 -77
12 10 50 11 13 108 -29 49
68 -3 -53 -4 63 39 92 -25
82 108 -38 52 119 -38 37 31
-91 53 -21 -52 -27 22 -20 38
-18 -50 40 -28 -26 -18 38 0
-36 -15 42 -42 -26 -25 -25 -68
-55 -36 -69 -56 -45 -23 90 -4
-47 56 -30 50 -47 -43 18 -18
-19 -35 47 -14 -47 -13 24 -60
-39 44 -43 -19 63 82 -42 -8
41 -60 4 59 47 58 114 -24
0 -5 -52 7 -21 -21 43 31
121 77 -25 5 -2 -4 30 3
-83 -9 33 -38 -12 -36 71 5
58 -71 65 -74 40 109 13 -26
127 -9 44 31 2 35 105 38
-28 28 -56 -40 21 15 -14 -24
-29 -46 9 -35 -47 -6 3 13
-39 -14 -26 -31 -4 -44 27 14
6 14 -7 -90 2 -10 14 6

sequential/mobilenetv2_0.35_99/block_9_depthwise_BN/FusedBatchNormV3;sequential/mobilenetv2_0.35_99/block_9_depthwise/depthwise;sequential/mobilenetv2_0.35_99/block_10_depthwise/depthwise i1 [1, 3, 3, 144]
00000000: 2624 f8d1 1fbd 31bf fded c031 30e7 0cf7
00000010: ed7f 0f4a f835 d0f3 c91d c9a7 2e11 e40c
00000020: 4ecb 5c6a 9fa1 11a3 7f06 e11d 8116 7f09
00000030: c0d8 28e4 ef26 27e8 08cf 207f 2027 baa2
00000040: ffba f546 5c04 fcdf 7f0a 81ec aed8 ced2
00000050: 8120 477f a181 6de5 540b eafc 701b 13ce
00000060: a02b ba06 e810 d6ff fa0e 0a06 ff2d 3c1a
00000070: 7f23 e7d7 28f2 e5d2 fb14 aba6 efb5 5c87
00000080: c5dd f5ba 076b d31f e77f 1a58 0f8a 7fa3
00000090: 5f55 cc81 81ce f38b 453c fc7f c01d 1b36
000000a0: ef47 fe1d 7f86 ed07 ed18 bb7f d4e0 1a81
000000b0: 39fa d9d8 14fc 926e 6dd6 85db 8d81 4f04
000000c0: eb20 06c1 759f db7f 7fd1 292d d8eb b80e
000000d0: d773 c70e 7f6c f6b4 3722 9962 ccf4 01d2
000000e0: ece6 8136 b203 1ac1 14f4 01ed e7f2 6ed9
000000f0: f87f a00d 81f2 04e4 383b 7f01 3d37 01f9
38 36 -8 -47 31 -67 49 -65
-3 -19 -64 49 48 -25 12 -9
-19 127 15 74 -8 53 -48 -13
-55 29 -55 -89 46 17 -28 12
78 -53 92 106 -97 -95 17 -93
127 6 -31 29 -127 22 127 9
-64 -40 40 -28 -17 38 39 -24
8 -49 32 127 32 39 -70 -94
-1 -70 -11 70 92 4 -4 -33
127 10 -127 -20 -82 -40 -50 -46
-127 32 71 127 -95 -127 109 -27
84 11 -22 -4 112 27 19 -50
-96 43 -70 6 -24 16 -42 -1
-6 14 10 6 -1 45 60 26
127 35 -25 -41 40 -14 -27 -46
-5 20 -85 -90 -17 -75 92 -121
-59 -35 -11 -70 7 107 -45 31
-25 127 26 88 15 -118 127 -93
95 85 -52 -127 -127 -50 -13 -117
69 60 -4 127 -64 29 27 54
-17 71 -2 29 127 -122 -19 7
-19 24 -69 127 -44 -32 26 -127
57 -6 -39 -40 20 -4 -110 110
109 -42 -123 -37 -115 -127 79 4
-21 32 6 -63 117 -97 -37 127
127 -47 41 45 -40 -21 -72 14
-41 115 -57 14 127 108 -10 -76
55 34 -103 98 -52 -12 1 -46
-20 -26 -127 54 -78 3 26 -63
20 -12 1 -19 -25 -14 110 -39
-8 127 -96 13 -127 -14 4 -28
56 59 127 1 61 55 1 -7

sequential/mobilenetv2_0.35_99/block_9_expand/Conv2D i1 [144, 1, 1, 24]
00000000: e9ee 3d51 a28a 26fc ff81 c6e6 e0d1 25b5
00000010: 39f7 54ea 1d4a e326 fe1c cba3 fbf6 b206
00000020: 7168 ed29 cbf4 0849 25fc 5dc7 01e7 8103
00000030: c799 a0f3 4c31 cfcc 0b12 de7f f9fd 3b4f
00000040: f7db 04db 550d 12fa 288b 57d0 65dc 8705
00000050: 2c7f bd54 d0e2 bbc6 38ef 01ca f60c 7846
00000060: 41ce 72fa c6de 1911 5c4d b421 ff2f d43f
00000070: 9a68 3581 434b f128 b4f1 3057 9911 23be
00000080: 1cad 812d 1b1e 1972 96ce dbe2 b83b 3d52
00000090: f91e a3f1 e015 241d 6e81 fcc6 30d3 f754
000000a0: 21f6 08e1 d8f7 1e01 b632 950a 1bf8 c115
000000b0: 5342 fab0 7f5c 4508 3c5f b456 d39b 7253
000000c0: 591c 340b ae6e bcb8 704e 632d f46e ddfa
000000d0: f14d 1500 af63 8158 0ffd 1de7 0535 810d
000000e0: 1b4e 21dc e0fa f426 2cc4 5f05 2b3d 56e7
000000f0: dbcd fbd4 28cf 28ad 17ae ff2b d456 8bf2
-23 -18 61 81 -94 -118 38 -4
-1 -127 -58 -26 -32 -47 37 -75
57 -9 84 -22 29 74 -29 38
-2 28 -53 -93 -5 -10 -78 6
113 104 -19 41 -53 -12 8 73
37 -4 93 -57 1 -25 -127 3
-57 -103 -96 -13 76 49 -49 -52
11 18 -34 127 -7 -3 59 79
-9 -37 4 -37 85 13 18 -6
40 -117 87 -48 101 -36 -121 5
44 127 -67 84 -48 -30 -69 -58
56 -17 1 -54 -10 12 120 70
65 -50 114 -6 -58 -34 25 17
92 77 -76 33 -1 47 -44 63
-102 104 53 -127 67 75 -15 40
-76 -15 48 87 -103 17 35 -66
28 -83 -127 45 27 30 25 114
-106 -50 -37 -30 -72 59 61 82
-7 30 -93 -15 -32 21 36 29
110 -127 -4 -58 48 -45 -9 84
33 -10 8 -31 -40 -9 30 1
-74 50 -107 10 27 -8 -63 21
83 66 -6 -80 127 92 69 8
60 95 -76 86 -45 -101 114 83
89 28 52 11 -82 110 -68 -72
112 78 99 45 -12 110 -35 -6
-15 77 21 0 -81 99 -127 88
15 -3 29 -25 5 53 -127 13
27 78 33 -36 -32 -6 -12 38
44 -60 95 5 43 61 86 -25
-37 -51 -5 -44 40 -49 40 -83
23 -82 -1 43 -44 86 -117 -14

sequential/mobilenetv2_0.35_99/block_8_project/Conv2D i1 [24, 1, 1, 144]
00000000: cd27 1b31 0202 1ad2 18eb fefc b7aa ff08
00000010: 1ac5 f007 0b08 1d51 20e3 d8f6 d248 ce2f
00000020: 3ff2 01b2 abf7 ba59 271e 24f2 e71a c519
00000030: af16 602b 0abe eb1c 2e18 c1d9 effb 2bc4
00000040: 340b 20f8 e106 eae8 cbd3 dd65 2908 02d6
00000050: 73de eb28 f0c7 d6b9 f4d1 810d 27bc 5a18
00000060: 21e0 d302 b90c 15f3 d536 355e 7cae edb7
00000070: c32d e1e0 fade f21f 4ccb bb32 3ff5 53fb
00000080: faf9 0b26 2f30 284e 05f1 ecbd 5197 dde2
00000090: 104b 4107 3d0d c418 969b df07 b818 f9d0
000000a0: f2d5 bddd e0b9 2e33 171b bc3b fafa 482b
000000b0: f613 3215 16c5 05fa 81f4 b8c4 1fc4 0ef0
000000c0: 1fe1 0b19 dcd0 0a14 0f51 adc2 a75f ccf9
000000d0: 1424 222e f909 1408 df15 178d 9735 4b25
000000e0: d002 2f55 0ab7 3190 14e8 00c3 e703 13dc
000000f0: e34f 131c ff25 94ca f931 2bd2 18f2 0200
-51 39 27 49 2 2 26 -46
24 -21 -2 -4 -73 -86 -1 8
26 -59 -16 7 11 8 29 81
32 -29 -40 -10 -46 72 -50 47
63 -14 1 -78 -85 -9 -70 89
39 30 36 -14 -25 26 -59 25
-81 22 96 43 10 -66 -21 28
46 24 -63 -39 -17 -5 43 -60
52 11 32 -8 -31 6 -22 -24
-53 -45 -35 101 41 8 2 -42
115 -34 -21 40 -16 -57 -42 -71
-12 -47 -127 13 39 -68 90 24
33 -32 -45 2 -71 12 21 -13
-43 54 53 94 124 -82 -19 -73
-61 45 -31 -32 -6 -34 -14 31
76 -53 -69 50 63 -11 83 -5
-6 -7 11 38 47 48 40 78
5 -15 -20 -67 81 -105 -35 -30
16 75 65 7 61 13 -60 24
-106 -101 -33 7 -72 24 -7 -48
-14 -43 -67 -35 -32 -71 46 51
23 27 -68 59 -6 -6 72 43
-10 19 50 21 22 -59 5 -6
-127 -12 -72 -60 31 -60 14 -16
31 -31 11 25 -36 -48 10 20
15 81 -83 -62 -89 95 -52 -7
20 36 34 46 -7 9 20 8
-33 21 23 -115 -105 53 75 37
-48 2 47 85 10 -73 49 -112
20 -24 0 -61 -25 3 19 -36
-29 79 19 28 -1 37 -108 -54
-7 49 43 -46 24 -14 2 0

sequential/mobilenetv2_0.35_99/block_8_depthwise_BN/FusedBatchNormV3;sequential/mobilenetv2_0.35_99/block_8_depthwise/depthwise;sequential/mobilenetv2_0.35_99/block_10_depthwise/depthwise i1 [1, 3, 3, 144]
00000000: 48e9 37d1 a8d3 cfb6 11ed 18c8 fbdc efcb
00000010: 8152 0dea f926 06e0 352f e0e4 7f49 2b20
00000020: fb9e eb04 d207 db59 c826 c111 cd08 2c54
00000030: 3543 f8d8 0cd6 ee48 a509 1c19 d8ec 50d3
00000040: 6081 020b 1e36 5bf7 eb9b e9c7 17d4 f999
00000050: ebb2 4f4f be81 7f45 8109 06ae ffde f3ad
00000060: eadc fae1 0881 1e2e d8ca d84a d6fd 0a20
00000070: 00ec d6dc 817f 3cfe 04b9 16c2 666d 8113
00000080: fa19 7f09 9316 0af2 4ef5 a8ec f9bc b4d2
00000090: 2e81 017f 1b10 afc3 7f7f 7ff0 3303 3a07
000000a0: 04af 7f3a dded ef22 7ffc 1b2e 14f5 e35a
000000b0: 26d9 041c e8c3 b05d 095e 7f0a af45 7fed
000000c0: db7f a506 0a42 f4fe eb7f 3667 02d7 7f0c
000000d0: eb9d 39eb 7f7f 92e4 f9f5 46d2 2529 efc3
000000e0: 36bb 1dac dfaf 3d3e ae0a c849 fefe 0f0e
000000f0: 0578 fa08 0cdf ddfe 18ea 28fb dfd6 fd40
72 -23 55 -47 -88 -45 -49 -74
17 -19 24 -56 -5 -36 -17 -53
-127 82 13 -22 -7 38 6 -32
53 47 -32 -28 127 73 43 32
-5 -98 -21 4 -46 7 -37 89
-56 38 -63 17 -51 8 44 84
53 67 -8 -40 12 -42 -18 72
-91 9 28 25 -40 -20 80 -45
96 -127 2 11 30 54 91 -9
-21 -101 -23 -57 23 -44 -7 -103
-21 -78 79 79 -66 -127 127 69
-127 9 6 -82 -1 -34 -13 -83
-22 -36 -6 -31 8 -127 30 46
-40 -54 -40 74 -42 -3 10 32
0 -20 -42 -36 -127 127 60 -2
4 -71 22 -62 102 109 -127 19
-6 25 127 9 -109 22 10 -14
78 -11 -88 -20 -7 -68 -76 -46
46 -127 1 127 27 16 -81 -61
127 127 127 -16 51 3 58 7
4 -81 127 58 -35 -19 -17 34
127 -4 27 46 20 -11 -29 90
38 -39 4 28 -24 -61 -80 93
9 94 127 10 -81 69 127 -19
-37 127 -91 6 10 66 -12 -2
-21 127 54 103 2 -41 127 12
-21 -99 57 -21 127 127 -110 -28
-7 -11 70 -46 37 41 -17 -61
54 -69 29 -84 -33 -81 61 62
-82 10 -56 73 -2 -2 15 14
5 120 -6 8 12 -33 -35 -2
24 -22 40 -5 -33 -42 -3 64
